…
e sequences) X = Dropout(0.8)(X); # dropout (use 0.8) X = BatchNormalization()(X); # Batch normalization X = Dropout(0.8)(X); # dropout (use 0.8) # Step 4: Time-distributed dense layer (≈1 line) X = TimeDistributed(Dense(1, activation = "sigmoid"))(X) # time distributed (sigmoid) ### END CODE HERE ### model = Model(inputs = X_input, outputs = X) return model1model = model(input_shape = (Tx, n_freq))Let’s print the model summary to keep track of the shapes.1model.summary() _ Layer (type) Output Shape Param # ================================================================= input_1 (InputLayer) (None, 5511, 101) 0 _ conv1d_1 (Conv1D) (None, 1375, 196) 297136 _ batch_normalization_1 (Batch (None, 1375, 196) 784 _ activation_1 (Activation) (None, 1375, 196) 0 _ dropout_1 (Dropout) (None, 1375, 196) 0 _ gru_1 (GRU) (None, 1375, 128) 124800 _ dropout_2 (Dropout) (None, 1375, 128) 0 _ batch_normalization_2 (Batch (None, 1375, 128) 512 _ gru_2 (GRU) (None, 1375, 128) 98688 _ dropout_3 (Dropout) (None, 1375, 128) 0 _ batch_normalization_3 (Batch (None, 1375, 128) 512 _ dropout_4 (Dropout) (None, 1375, 128) 0 _ time_distributed_1 (TimeDist (None, 1375, 1) 129 ================================================================= Total params: 522,561 Trainable params: 521,657 Non-trainable params: 904 _Expected Output: Total params 522,561 Trainable params 521,657 Non-trainable params 904 The output of the network is of shape (None, 1375, 1) while the input is (None, 5511, 101). The Conv1D has reduced the number of steps from 5511 at spectrogram to 1375. 2
…
≈ 1 line) outputs.append(out); # Step 3: Create model instance taking three inputs and returning the list of outputs. (≈ 1 line) model = Model(inputs = [X, s0, c0], outputs = outputs); ### END CODE HERE ### return modelRun the following cell to create your model.1model = model(Tx, Ty, n_a, n_s, len(human_vocab), len(machine_vocab))Let’s get a summary of the model to check if it matches the expected output.1model.summary() ____ Layer (type) Output Shape Param # Connected to ==================================================================================================== input_1 (InputLayer) (None, 30, 37) 0 ____ s0 (InputLayer) (None, 64) 0 ____ bidirectional_1 (Bidirectional) (None, 30, 64) 17920 input_1[0][0] ____ repeat_vector_1 (RepeatVector) (None, 30, 64) 0 s0[0][0] lstm_1[0][0] lstm_1[1][0] lstm_1[2][0] lstm_1[3][0] lstm_1[4][0] lstm_1[5][0] lstm_1[6][0] lstm_1[7][0] lstm_1[8][0] ____ concatenate_1 (Concatenate) (None, 30, 128) 0 bidirectional_1[0][0] repeat_vector_1[0][0] bidirectional_1[0][0] repeat_vector_1[1][0] bidirectional_1[0][0] repeat_vector_1[2][0] bidirectional_1[0][0] repeat_vector_1[3][0] bidirectional_1[0][0] repeat_vector_1[4][0] bidirectional_1[0][0] repeat_vector_1[5][0] bidirectional_1[0][0] repeat_vector_1[6][0] bidirectional_1[0][0] repeat_vector_1[7][0] bidirectional_1[0][0] repeat_vector_1[8][0] bidirectional_1[0][0] repeat_vector_1[9][0] ____ dense_1 (Dense) (None, 30, 10) 1290 concatenate_1[0][0] concatenate_1[1][0] concatenate_1[2][0] concatenate_1[3][0] concatenate_1[4][0] concatenate_1[5][0] concatenate_1[6][0] concatenate_1[7][0] concatenate_1[8][0] concatenate_1[9][0] ____ dense_2 (Dense) (None, 30, 1) 11 dense_1[0][0] dense_1[1][0] dense_1[2][0] dense_1[3][0] dense_1[4][0] dense_1[5][0] dense_1[6][0] dense_1[7][0] dense_1[8][0] dense_1[9][0] ____ attention_weights (Activation) (None, 30, 1) 0 dense_2[0][0] dense_2[1][0] dense_2[2][0] dense_2[3][0] dense_2[4][0] dense_2[5][0] dense_2[6][0] dense_2[7][0] dense_2[8][0] dense_2[9][0] ____ dot_1 (Dot) (None, 1, 64) 0 attention_weights[0][0] bidirectional_1[0][0] attention_weights[1][0] bidirectional_1[0][0] attention_weights[2][0] bidirectional_1[0][0] attention_weights[3][0] bidirectional_1[0][0] attention_weights[4][0] bidirectional_1[0][0] attention_weights[5][0] bidirectional_1[0][0] attention_weights[6][0] bidirectional_1[0][0] attention_weights[7][0] bidirectional_1[0][0] attention_weights[8][0] bidirectional_1[0][0] attention_weights[9][0] bidirectional_1[0][0] ____ c0 (InputLayer) (None, 64) 0 ____ lstm_1 (LSTM) [(None, 64), (None, 6 33024 dot_1[0][0] s0[0][0] c0[0][0] dot_1[1][0] lstm_1[0][0] lstm_1[0][2] dot_1[2][0] lstm_1[1][0] lstm_1[1][2] dot_1[3][0] lstm_1[2][0] lstm_1[2][2] dot_1[4][0] lstm_1[3][0] lstm_1[3][2] dot_1[5][0] lstm_1[4][0] lstm_1[4][2] dot_1[6][0] lstm_1[5][0] lstm_1[5][2] dot_1[7][0] lstm_1[6][0] lstm_1[6][2] dot_1[8][0] lstm_1[7][0] lstm_1[7][2] dot_1[9][0] lstm_1[8][0] lstm_1[8][2] ____ dense_3 (Dense) (None, 11) 715 lstm_1[0][0] lstm_1[1][0] lstm_1[2][0] lstm_1[3][0] lstm_1[4][0] lstm_1[5][0] lstm_1[6][0] lstm_1[7][0] lstm_1[8][0] lstm_1[9][0] ==================================================================================================== Total params: 52,960 Trainable params: 52,960 Non-trainable params: 0 ____Expected Output:Here is the summary you should see Total params: 52,960 Trainable params: 52,9
…
words, we chose max_len = 10. You should see your architecture, it uses “20,223,927” parameters, of which 20,000,050 (the word embeddings) are non-trainable, and the remaining 223,877 are. Because our vocabulary size has 400,001 words (with valid indices from 0 to 400,000) there are 400,001*50 = 20,000,050 non-trainable parameters. 12model = Emojify_V2((maxLen,), word_to_vec_map, word_to_index)model.summary() _________________________________________________________________ Layer (type) Output Shape Param # ================================================================= input_1 (InputLayer) (None, 10) 0 _________________________________________________________________ embedding_2 (Embedding) (None, 10, 50) 20000050 _________________________________________________________________ lstm_1 (LSTM) (None, 10, 128) 91648 _________________________________________________________________ dropout_1 (Dropout) (None, 10, 128) 0 _________________________________________________________________ lstm_2 (LSTM) (None, 128) 131584 _________________________________________________________________ dropout_2 (Dropout) (None, 128) 0 _________________________________________________________________ dense_1 (Dense) (None, 5) 645 _________________________________________________________________ activation_1 (Activation) (None, 5) 0 ================================================================= Total params: 20,223,927 Trainable params: 223,877 Non-trainable params: 20,000,050 _________________________________________________________________ As usual, after creating your model in Keras, you need to compile it and define what loss, optimizer and metrics your are want to use. Compile your model using categorical_crossentrop
…
